resources/actuator_nets/go2_actuator_net.pt (torch, 18234 bytes, 5 tensors)

weight f4 [32, 6]
0	0xbf7cc933	-0.98744506
1	0xbb93bb50	-0.0045084134
2	0xbd44af82	-0.04801894
3	0xbe977b1f	-0.2958612
4	0x3c3360ca	0.010948369
5	0x3da252a3	0.07925918
6	0xbf827cd1	-1.0194341
7	0xbee94ccb	-0.455664
8	0x3e46a135	0.19397433
9	0xbe00f35e	-0.12592837
10	0xbc23a96d	-0.009989125
11	0x3d665005	0.056228656
12	0x3f92e493	1.1476005
13	0x3e5d5de5	0.21617849
14	0xbd29c0d1	-0.04144365
15	0xbcc96fca	-0.024589438
16	0xbe6e5b3f	-0.23276995
17	0x3e89aa18	0.26887584
18	0x3f01e95c	0.50746703
19	0x3eba13b5	0.3634316
20	0x3d5af23a	0.05345366
21	0xbe392a1b	-0.18082468
22	0x3e6bc20e	0.23023245
23	0x3c6bf556	0.014401754
24	0xbeed2d39	-0.46323565
25	0xbd65315d	-0.05595528
26	0xbe8ae239	-0.2712572
27	0x3e77b54b	0.24190252
28	0xbeb6607e	-0.35620493
29	0x3e7708d9	0.24124469
30	0xbf07fa55	-0.5311635
31	0xbe02e41b	-0.12782328
32	0xbe44afaa	-0.19207636
33	0xbeb290a9	-0.34875992
34	0x3e350747	0.17678557
35	0x3e25ee7e	0.16204259
36	0x3f9701e1	1.1797448
37	0xbedfa4a9	-0.43680313
38	0xbeaf62ba	-0.3425501
39	0x3d70fb5d	0.05883347
40	0xbd925357	-0.07144802
41	0xbe19a1e1	-0.15003158
42	0x3eed74be	0.4637813
43	0x3e28cc44	0.16484171
44	0xbeb55138	-0.35413527
45	0x3d053551	0.03252155
46	0xbee95757	-0.45574448
47	0x3ebaa52c	0.3645414
48	0x3f28bfb4	0.65917516
49	0x3f1084c3	0.5645258
50	0xbe232488	-0.15931904
51	0x3dce0ee4	0.10061434
52	0x3b77d5a9	0.003781656
53	0x3d0f0025	0.034912247
54	0xbf72b69c	-0.9480989
55	0xbc94b100	-0.018150806
56	0xbda6059a	-0.08106537
57	0x3e8b74df	0.27237603
58	0x3b06a4d5	0.0020545025
59	0x3c4acf94	0.012378592
60	0xbf76baa2	-0.9637853
61	0xbed2c8bb	-0.4116877
62	0x3e6b5a6c	0.22983712
63	0xbe9f5d3b	-0.31125817
64	0x3e9a4de5	0.30137554
65	0xbc9126cc	-0.017718695
66	0xbf0e25f8	-0.55526686
67	0xbe9343dc	-0.2876271
68	0xbea4a661	-0.32158187
69	0xbdb71090	-0.08938706
70	0x3e883b26	0.26607627
71	0xbe2e070a	-0.16994873
72	0xbf856a82	-1.0423129
73	0xbf0af3d4	-0.542783
74	0x3e451da4	0.19249588
75	0x3e28ae7f	0.16472815
76	0xbe292cee	-0.16521046
77	0xbdd72566	-0.1050518
78	0x3e6d0566	0.2314659
79	0xbd669f8d	-0.056304503
80	0x3eca4e81	0.3951302
81	0x3e29b5b5	0.16573222
82	0x3ece1a89	0.4025462
83	0xbe89b00b	-0.26892123
84	0xbe9befd4	-0.30456412
85	0xbc08f1b7	-0.008358411
86	0xbeced9dd	-0.40400591
87	0xbe5b0372	-0.21388033
88	0x3ed2a68a	0.41142684
89	0x3e438ffd	0.19097896
90	0x3f2d5a8a	0.67716277
91	0x3efd569d	0.49480143
92	0x3e5dcc83	0.21660046
93	0x3e2c4403	0.1682282
94	0x3d839973	0.064257525
95	0xbd718781	-0.058967117
96	0xbf3a522f	-0.7278165
97	0xbea9736f	-0.3309588
98	0xbd38faa8	-0.04516092
99	0xbd472079	-0.048614953
100	0xbdba0cf1	-0.090844996
101	0xbe424fb0	-0.18975711
102	0x3ed0bb7e	0.40768045
103	0x3ef8b2e3	0.4857398
104	0xbe80f353	-0.25185642
105	0xbe21fda2	-0.1581941
106	0xbe889d26	-0.26682395
107	0x3e413f67	0.18871842
108	0x3f10c89c	0.56556106
109	0xbde942d7	-0.11389702
110	0x3edd99be	0.43281358
111	0xbe2d940c	-0.16951007
112	0x3e75f93f	0.24020861
113	0xbe8fe7e2	-0.281066
114	0x3f97efec	1.1870093
115	0xbe0a9789	-0.13534369
116	0xbf11c7fa	-0.56945765
117	0xbe8bd37c	-0.27309787
118	0xbd42f9bf	-0.047601458
119	0x3d5e1c15	0.054226
120	0xbf4e6960	-0.8062954
121	0xbd181464	-0.03712882
122	0xbcd5931b	-0.026071122
123	0x3e240a38	0.16019523
124	0x3da7e810	0.08198559
125	0xbddd4aba	-0.108052686
126	0xbf4b0a4e	-0.793126
127	0xbe96e3e6	-0.29470748
128	0x3ecf46ff	0.40483853
129	0x3e496513	0.19667463
130	0xbebbb2c5	-0.36659828
131	0xbdbdf483	-0.092751525
132	0x3f4694d3	0.7757084
133	0x3eac6ff4	0.33679163
134	0x3cd7c705	0.026340017
135	0xbd14d426	-0.036335133
136	0x3e56119e	0.20905158
137	0xbd9e517a	-0.07730384
138	0xbf254714	-0.6456158
139	0xbdc4656e	-0.09589659
140	0xbeb2cfe6	-0.3492424
141	0xbcc51ad6	-0.024060648
142	0x3e417be9	0.18894924
143	0xbe3589c1	-0.1772833
144	0x3f4f3daf	0.80953497
145	0x3dffa880	0.12483311
146	0x3e18592e	0.1487777
147	0x3e4bf4fd	0.19917674
148	0x3e812b43	0.2522832
149	0xbe28adc2	-0.16472533
150	0x3f03ff4f	0.51561445
151	0x3ea7414f	0.32667014
152	0x3ea26a0d	0.31721535
153	0xbdd36db2	-0.10323657
154	0xbdd1bbd5	-0.10240904
155	0x3e78d2ef	0.24299215
156	0x3e70a036	0.23498616
157	0x3eda3ab2	0.42622906
158	0x3e7aad78	0.24480236
159	0xbe2e98aa	-0.17050424
160	0x3e98efc2	0.2987042
161	0xbda0b968	-0.078478634
162	0xbf1a9f97	-0.60399765
163	0xbee072a4	-0.43837464
164	0x3eb8ccf8	0.3609388
165	0xbe985f13	-0.29760036
166	0x3e270da1	0.16313793
167	0x3e1d0c11	0.15336634
168	0xbec9c5e9	-0.39408806
169	0xbd861083	-0.06546118
170	0xbf00d2cf	-0.5032167
171	0xbe21f2fd	-0.15815349
172	0xbd1253c0	-0.0357244
173	0xbe01408f	-0.12622283
174	0xbf7f9e64	-0.9985106
175	0xbea186f8	-0.31548285
176	0xbec0d6be	-0.37663835
177	0xbeb63cdd	-0.3559331
178	0xbe1a9295	-0.15094979
179	0x3eaffa74	0.34370768
180	0xbf3dcb79	-0.741386
181	0xbf13337f	-0.5750045
182	0xbe9ff81b	-0.31243977
183	0xbe8cbdb3	-0.2748848
184	0xbe62df3e	-0.22155473
185	0x3e72286b	0.2364823
186	0x3f204fef	0.6262197
187	0x3ea47516	0.3212058
188	0x3e9b44da	0.30325967
189	0xbcba7619	-0.022761391
190	0xbdad9c80	-0.08477116
191	0x3dc68069	0.09692461

bias f4 [32]
0	0xbe0481e4	-0.12940174
1	0xbed86a8f	-0.42268798
2	0xbe1be224	-0.15222985
3	0x3ea44cc5	0.3208982
4	0x3f4a6d31	0.7907286
5	0xbf04c4f2	-0.51863015
6	0xbedd831a	-0.43264085
7	0xbf321ee1	-0.6957837
8	0xbf2acb24	-0.6671622
9	0xbe0b5774	-0.1360758
10	0xbde80263	-0.1132858
11	0xbf3a96ee	-0.7288655
12	0x3e5dd868	0.21664584
13	0x3ec57ffb	0.38574204
14	0x3f545941	0.8294869
15	0xbed15bbb	-0.40890297
16	0xbee2e38e	-0.44314235
17	0x3e9e064f	0.30864188
18	0x3f1e66fa	0.6187588
19	0xbe1f4219	-0.15552558
20	0xbeff0a0f	-0.49812362
21	0xbc5adce7	-0.013358331
22	0xbf2a9da7	-0.6664681
23	0xbf11654b	-0.56795186
24	0x3ee588b2	0.44830853
25	0x3ed534bc	0.41641796
26	0x3f12bf1d	0.57322866
27	0x3f6ee376	0.9331583
28	0x3f46d8b8	0.77674437
29	0x3b9847b1	0.004647218
30	0x3e35868c	0.17727107
31	0x3f5bfbef	0.85931295

weight f4 [32, 32]
0	0x3e8ab61b	0.2709206
1	0x3e4334ec	0.19063157
2	0xbefbc7f3	-0.49175987
3	0x3d2e2fc9	0.04252604
4	0x3edd4337	0.43215343
5	0x3cf656f3	0.030070757
6	0xbf114910	-0.5675211
7	0xbee95b5a	-0.45577508
8	0xbf0d4d51	-0.551961
9	0x3e1abfa1	0.15112163
10	0x3dcc49d9	0.09975023
11	0x3cc7dc9b	0.024397185
12	0x3f073895	0.5282071
13	0x3e0d2419	0.13783301
14	0x3ebf561a	0.37370378
15	0xbf1b2849	-0.60608345
16	0x3cefdf46	0.02928127
17	0xbdaa719d	-0.08322451
18	0x3dcc2b90	0.099692464
19	0xbedbdf83	-0.42943963
20	0xbd81f281	-0.06345082
21	0x3d80bbe9	0.06285841
22	0xbeb24201	-0.34815982
23	0x3e171ae3	0.1475635
24	0xbcae68cb	-0.021290204
25	0xbe802658	-0.25029254
26	0xbe058cc9	-0.13041987
27	0x3efe2149	0.4963477
28	0x3f20a1bd	0.62746793
29	0x3eacac36	0.33725137
30	0x3ed907bd	0.42388716
31	0xbdd9b779	-0.10630698
32	0x3e4e51e4	0.20148426
33	0x3eca3bcd	0.3949875
34	0xbeb9da9f	-0.36299607
35	0xbe4086ea	-0.18801466
36	0x3e01f755	0.12692006
37	0x3e01fceb	0.12694137
38	0xbe8b0738	-0.27153945
39	0xbe7cf036	-0.24701008
40	0xbe8dc962	-0.27692705
41	0x3eb25bbe	0.3483562
42	0x3ec4d991	0.3844724
43	0x3ea51844	0.32245076
44	0x3e5b69c4	0.21427065
45	0x3e85934c	0.2608894
46	0x3e14f92b	0.14548175
47	0xbedcdbfe	-0.4313659
48	0x3e068367	0.13136064
49	0xbe934f19	-0.28771284
50	0xbe8407a2	-0.25787073
51	0xbe97cc48	-0.29648042
52	0x3d91b792	0.071150914
53	0x3e927f1f	0.2861261
54	0xbe9df726	-0.30852622
55	0x3d661e8c	0.056181476
56	0xbd1dad4d	-0.03849535
57	0xbdbda7ea	-0.09260543
58	0xbe50fe03	-0.20409398
59	0x3e887a5c	0.26655853
60	0x3ecd5f68	0.40111852
61	0x3ee11b8e	0.43966335
62	0x3db290dc	0.08719036
63	0xbeaff147	-0.34363768
64	0x3e4f54c2	0.20247176
65	0x3ef9cab7	0.48787472
66	0xbe7ecb08	-0.24882138
67	0xbf19912a	-0.5998713
68	0xbed64fc8	-0.41857743
69	0x3f4e8b46	0.80681264
70	0x3de8da06	0.1136971
71	0x3ed4d346	0.4156744
72	0x3cb846a0	0.022494614
73	0x3e8e3ec6	0.27782267
74	0x3ee1b1c9	0.44080952
75	0x3f06a3f0	0.525939
76	0x3e758f57	0.23980461
77	0xbeffc8f9	-0.49958017
78	0xbe7f7f04	-0.24950796
79	0xbe38d667	-0.18050538
80	0x3f54b229	0.8308435
81	0xbe1e94d6	-0.15486464
82	0xbefcf799	-0.49407652
83	0x3dc3e5d1	0.095653184
84	0x3f587db3	0.845668
85	0x3f2981e8	0.66213846
86	0x3e92e3de	0.28689474
87	0x3f1e2246	0.6177105
88	0xbf4e4307	-0.80571026
89	0xbf10c383	-0.5654833
90	0xbf0ea7a8	-0.55724573
91	0xbeac05c7	-0.33598158
92	0xbe81ade5	-0.25327983
93	0x3ec774a8	0.3895619
94	0xbb39f00a	-0.0028371834
95	0xbf5a5081	-0.8527909
96	0x3e75718f	0.239691
97	0x3ef6e31e	0.48220152
98	0xbe59288f	-0.21206878
99	0xbeb03cc3	-0.34421358
100	0x3e70c1fb	0.23511498
101	0x3e164718	0.14675558
102	0xbe75d79b	-0.24008028
103	0xbe1aea4c	-0.1512844
104	0xbde1ea0b	-0.11030968
105	0x3ebcf1a8	0.3690312
106	0x3ebe2710	0.37139177
107	0x3ec96071	0.3933139
108	0x3e8bfabf	0.27339742
109	0xbd553750	-0.052054703
110	0x3deddcda	0.1161439
111	0xbdb71a46	-0.08940558
112	0x3edcb702	0.43108374
113	0xbeac61cb	-0.3366836
114	0xbe3b0321	-0.18262912
115	0xbf1298d4	-0.5726445
116	0x3eddc645	0.4331533
117	0x3f2a998e	0.66640556
118	0xbdf1c7c9	-0.11805684
119	0x3eb21e6e	0.3478884
120	0xbe617136	-0.22015843
121	0xbe32d64d	-0.17464562
122	0xbdf886b1	-0.12135065
123	0x3d2084aa	0.03918902
124	0x3db3dc7e	0.0878229
125	0x3f034b35	0.5128663
126	0x3e0e4cf4	0.13896543
127	0xbde67364	-0.11252478
128	0x3e924632	0.2856918
129	0x3ec1ca52	0.3784967
130	0xbe99842e	-0.29983658
131	0xbe499f6b	-0.1968972
132	0x3e4e34fc	0.201374
133	0x3e3ef469	0.18647923
134	0xbe3aae98	-0.18230665
135	0xbe932b38	-0.2874391
136	0xbe2f43b2	-0.17115667
137	0x3edfaa16	0.43684453
138	0x3efbaaf5	0.49153867
139	0x3d688013	0.056762766
140	0x3ebfcd70	0.37461424
141	0xbd36de27	-0.044645455
142	0x3e0df948	0.13864625
143	0xbe6b6263	-0.2298675
144	0x3e8a790b	0.27045473
145	0xbdf93517	-0.12168329
146	0xbe92d5f9	-0.28678873
147	0xbee9a2aa	-0.45631915
148	0x3e668364	0.22511059
149	0x3e737cda	0.23778096
150	0xbeeb2a95	-0.45930925
151	0x3e7d8689	0.24758352
152	0xbe63fd18	-0.22264516
153	0xbda37578	-0.0798139
154	0xbdf9ffc8	-0.122069895
155	0x3e743305	0.23847587
156	0x3e5ae36e	0.2137582
157	0x3f09262a	0.5357386
158	0x3e6a25ba	0.22865954
159	0xbdd48f99	-0.103789516
160	0x3ea39e1a	0.3195656
161	0x3e8359bd	0.25654402
162	0xbe831d8e	-0.25608486
163	0xbe297281	-0.16547586
164	0x3ee78d3b	0.45224938
165	0x3e6e268b	0.2325689
166	0xbec13f9a	-0.37743837
167	0xbecfc037	-0.40576336
168	0xbeb9e108	-0.36304498
169	0xbd4b54bd	-0.04964136
170	0x3ea068d7	0.31329986
171	0x3d103c44	0.035213724
172	0x3ecda13d	0.40162078
173	0xbdd2f38a	-0.10300358
174	0x3e8c8a9d	0.27449504
175	0xbe926275	-0.28590742
176	0x3d43abfe	0.047771446
177	0xbd7dac02	-0.061931618
178	0x3cf7f869	0.030269818
179	0xbedf060d	-0.43559304
180	0x3e4e879c	0.20168918
181	0x3eaeb28c	0.34120595
182	0xbe76de62	-0.2410827
183	0x3df6c1ec	0.120487064
184	0xbdd12304	-0.10211757
185	0xbe48cb75	-0.19608863
186	0x3d0998b9	0.033592913
187	0x3e5fc5d5	0.2185281
188	0x3ef09e42	0.4699574
189	0x3f002910	0.50062656
190	0x3ea99bea	0.33126765
191	0xbe7ed092	-0.24884251
192	0xbec400f5	-0.3828198
193	0xbf5a3ee4	-0.85252213
194	0x3d920efd	0.07131765
195	0x3ed3dee9	0.41381004
196	0x3e55acca	0.20866695
197	0xbf366392	-0.7124568
198	0x3df9665a	0.12177725
199	0x3c8c96e4	0.017161794
200	0xbd99c52e	-0.07508312
201	0xbedcaebc	-0.43102062
202	0xbeb70474	-0.35745585
203	0xbf20e6e9	-0.6285234
204	0xbe9f222f	-0.31080768
205	0x3e963eee	0.29344887
206	0x3e498d8d	0.19682904
207	0x3deafa7b	0.114735566
208	0xbea8fdb3	-0.33006057
209	0x3e8d27a8	0.27569318
210	0x3eef3b1d	0.46724787
211	0x3e775c5f	0.2415633
212	0xbf02d20b	-0.5110175
213	0xbef79715	-0.48357454
214	0x3cafa6b7	0.0214418
215	0xbf0ff54f	-0.56233686
216	0x3eddcf70	0.43322325
217	0x3edae7f8	0.42755103
218	0x3ec08e23	0.37608442
219	0x3db9b44a	0.090675905
220	0xbd0bf570	-0.034169614
221	0xbdef3a6f	-0.11681067
222	0xbeb4ddb4	-0.35325396
223	0x3f3732be	0.715618
224	0xbe58ddaa	-0.21178308
225	0xbe77afdf	-0.24188183
226	0x3ef2707f	0.47351453
227	0xb847fec4	-4.7682566e-05
228	0xbeb2b291	-0.3490186
229	0xbd18a8bb	-0.03727029
230	0x3ebf84b1	0.37405923
231	0x3ebb6573	0.36600837
232	0x3e84f07d	0.25964728
233	0xbe090595	-0.13381036
234	0xbea0192c	-0.31269205
235	0xbe9aba14	-0.3022009
236	0xbebb475f	-0.3657789
237	0xbd89f0b8	-0.067353666
238	0xbeaffc60	-0.34372234
239	0x3ebb031f	0.3652582
240	0xbe43fc3b	-0.19139187
241	0x3dd1abf0	0.102378726
242	0x3e032cf2	0.12810114
243	0x3ec679b5	0.3876473
244	0xbe7c6f38	-0.24651802
245	0xbe3b8c0b	-0.18315141
246	0x3e9dd312	0.30825096
247	0xbea0a60e	-0.3137669
248	0x3ea0dae1	0.3141699
249	0x3d0d25ba	0.034459807
250	0xbcd26443	-0.025682574
251	0xbe91e2d3	-0.28493366
252	0xbe5b4823	-0.21414237
253	0xbed0e32c	-0.40798318
254	0xbce49a13	-0.0279055
255	0x3e2796c7	0.1636611

bias f4 [32]
0	0x3ec56101	0.3855057
1	0x3e932ef2	0.28746754
2	0xbe8aa6f5	-0.27080503
3	0xbd54fba2	-0.05199779
4	0x3e96fdc7	0.29490492
5	0x3eaef67a	0.34172422
6	0x3e89fcfd	0.26950827
7	0xbe7b1525	-0.24519785
8	0x3ef5da34	0.48018038
9	0xbe9d1df6	-0.3068692
10	0x3cb26be6	0.021779966
11	0xbd480613	-0.048833918
12	0xbee30e39	-0.4434679
13	0x3f051e44	0.51999307
14	0xbde53b86	-0.11192994
15	0xbd260579	-0.040532563
16	0xbec53069	-0.38513497
17	0x3ecbd386	0.39809817
18	0xbea5beeb	-0.3237222
19	0x3e41437b	0.18873398
20	0x3e9c8a31	0.30574182
21	0xbdd700ae	-0.104981765
22	0x3ea095b7	0.31364223
23	0x3ed7146f	0.42007777
24	0x3ee04ab2	0.43806988
25	0xbe244b1c	-0.16044277
26	0x3e398b38	0.18119514
27	0x3e96a446	0.29422206
28	0x3c16ef75	0.009212364
29	0x3ca1c8d2	0.019749079
30	0x3ecd0300	0.4004135
31	0x3eb20656	0.3477046

weight f4 [1, 32]
0	0x3f2324bd	0.63727933
1	0x3f2d4084	0.6767657
2	0x3f130fbc	0.57445884
3	0x3f3ac6ab	0.72959393
4	0x3f20f070	0.6286688
5	0x3f31246a	0.6919619
6	0xbf24c30b	-0.6436011
7	0xbf2e7349	-0.6814466
8	0x3f2b341f	0.66876405
9	0x3f1f01fd	0.6211241
10	0x3f1acd9c	0.60469985
11	0xbf3ef99a	-0.7459961
12	0xbf2bf20b	-0.67166203
13	0xbf192a45	-0.59830123
14	0xbf3e5951	-0.74355036
15	0x3f2cc3a1	0.67486006
16	0x3f1c982b	0.6116969
17	0x3f446bee	0.7672719
18	0xbf311020	-0.6916523
19	0x3f186172	0.5952369
20	0x3f3ae65b	0.73007745
21	0x3f261010	0.6486826
22	0x3f454038	0.77051115
23	0x3f2cde6b	0.6752688
24	0xbf1cfa71	-0.61319643
25	0x3f1f4339	0.6221195
26	0x3f368ceb	0.71308774
27	0x3f29d598	0.66341543
28	0xbf2910cf	-0.6604127
29	0xbf242d77	-0.64131874
30	0x3f2ecdeb	0.68282956
31	0xbf0f37b4	-0.5594437
